…
Torque 3: Min = -54.2620, Max = 53.8970, Mean = -1.9853
Torque 4: Min = -10.7257, Max = 12.0049, Mean = 0.6904
Torque 5: Min = -5.9562, Max = 6.2149, Mean = 0.1356
Torque 6: Min = -2.5132, Max = 2.8268, Mean = 0.1668

FK Error Statistics (meters):
Delta X: Min = -0.01097954, Max = 0.01352684, Mean = 0.00018684
Delta Y: Min = -0.01082828, Max = 0.01134697, Mean = 0.00000375
Delta Z: Min = -0.01429689, Max = 0.01520985, Mean = -0.00004619

XY Model - Training set size: 720, Test set size: 180
Z Model - Training set size: 720, Test set size: 180

XY Model architecture:
XYErrorNet(
  (model): Sequential(
    (0): Linear(in_features=6, out_features=2000, bias=True)
    (1): BatchNorm1d(2000, eps=1e-05, momentum=0.1, affine=True, track_running_stats=True)
    (2): ReLU()
    (3): Dropout(p=0.25, inplace=False)
    (4): Linear(in_features=2000, out_features=1000, bias=True)
    (5): BatchNorm1d(1000, eps=1e-05, momentum=0.1, affine=True, track_running_stats=True)
    (6): ReLU()
    (7): Dropout(p=0.25, inplace=False)
    (8): Linear(in_features=1000, out_features=500, bias=True)
    (9): BatchNorm1d(500, eps=1e-05, momentum=0.1, affine=True, track_running_stats=True)
    (10): ReLU()
    (11): Dropout(p=0.25, inplace=False)
    (12): Linear(in_features=500, out_features=2, bias=True)
  )
)

Z Model architecture:
ZErrorNet(
  (model): Sequential(
    (0): Linear(in_features=12, out_features=2000, bias=True)
    (1): BatchNorm1d(2000, eps=1e-05, momentum=0.1, affine=True, track_running_stats=True)
    (2): ReLU()
    (3): Dropout(p=0.25, inplace=False)
    (4): Linear(in_features=2000, out_features=1000, bias=True)
    (5): BatchNorm1d(1000, eps=1e-05, momentum=0.1, affine=True, track_running_stats=True)
    (6): ReLU()
    (7): Dropout(p=0.25, inplace=False)
    (8): Linear(in_features=1000, out_features=500, bias=True)
    (9): BatchNorm1d(500, eps=1e-05, momentum=0.1, affine=True, track_running_stats=True)
    (10): ReLU()
    (11): Dropout(p=0.25, inplace=False)
    (12): Linear(in_features=500, out_features=1, bias=True)
  )
)

XY Model parameters: 2,523,502
Z Model parameters: 2,535,001

=== Training XY Model ===
[XY Model] Epoch [1/150], Train Loss: 0.30156517, Val Loss: 0.10233340, LR: 0.001
[XY Model] Validation RMSE: 0.00758677 meters
[XY Model] Epoch [10/150], Train Loss: 0.03419678, Val Loss: 0.01485469, LR: 0.001
[XY Model] Validation RMSE: 0.00288441 meters
[XY Model] Epoch [20/150], Train Loss: 0.01510415, Val Loss: 0.00746438, LR: 0.001
…
